{"format": "layers-model", "generatedBy": "keras v2.11.0", "convertedBy": "TensorFlow.js Converter v4.2.0", "modelTopology": {"keras_version": "2.11.0", "backend": "tensorflow", "model_config": {"class_name": "Functional", "config": {"name": "model_9", "layers": [{"class_name": "InputLayer", "config": {"batch_input_shape": [null, 500], "dtype": "float32", "sparse": false, "ragged": false, "name": "input_36"}, "name": "input_36", "inbound_nodes": []}, {"class_name": "Embedding", "config": {"name": "embedding_35", "trainable": false, "batch_input_shape": [null, 500], "dtype": "float32", "input_dim": 98818, "output_dim": 50, "embeddings_initializer": {"class_name": "RandomUniform", "config": {"minval": -0.05, "maxval": 0.05, "seed": null}}, "embeddings_regularizer": null, "activity_regularizer": null, "embeddings_constraint": null, "mask_zero": false, "input_length": 500}, "name": "embedding_35", "inbound_nodes": [[["input_36", 0, 0, {}]]]}, {"class_name": "Dropout", "config": {"name": "dropout_49", "trainable": true, "dtype": "float32", "rate": 0.2, "noise_shape": null, "seed": null}, "name": "dropout_49", "inbound_nodes": [[["embedding_35", 0, 0, {}]]]}, {"class_name": "Conv1D", "config": {"name": "conv1d_37", "trainable": true, "dtype": "float32", "filters": 64, "kernel_size": [5], "strides": [1], "padding": "valid", "data_format": "channels_last", "dilation_rate": [1], "groups": 1, "activation": "relu", "use_bias": true, "kernel_initializer": {"class_name": "GlorotUniform", "config": {"seed": null}}, "bias_initializer": {"class_name": "Zeros", "config": {}}, "kernel_regularizer": null, "bias_regularizer": null, "activity_regularizer": null, "kernel_constraint": null, "bias_constraint": null}, "name": "conv1d_37", "inbound_nodes": [[["dropout_49", 0, 0, {}]]]}, {"class_name": "Conv1D", "config": {"name": "conv1d_38", "trainable": true, "dtype": "float32", "filters": 64, "kernel_size": [5], "strides": [1], "padding": "valid", "data_format": "channels_last", "dilation_rate": [1], "groups": 1, "activation": "relu", "use_bias": true, "kernel_initializer": {"class_name": "GlorotUniform", "config": {"seed": null}}, "bias_initializer": {"class_name": "Zeros", "config": {}}, "kernel_regularizer": null, "bias_regularizer": null, "activity_regularizer": null, "kernel_constraint": null, "bias_constraint": null}, "name": "conv1d_38", "inbound_nodes": [[["dropout_49", 0, 0, {}]]]}, {"class_name": "MaxPooling1D", "config": {"name": "max_pooling1d_17", "trainable": true, "dtype": "float32", "strides": [4], "pool_size": [4], "padding": "valid", "data_format": "channels_last"}, "name": "max_pooling1d_17", "inbound_nodes": [[["conv1d_37", 0, 0, {}]]]}, {"class_name": "MaxPooling1D", "config": {"name": "max_pooling1d_18", "trainable": true, "dtype": "float32", "strides": [4], "pool_size": [4], "padding": "valid", "data_format": "channels_last"}, "name": "max_pooling1d_18", "inbound_nodes": [[["conv1d_38", 0, 0, {}]]]}, {"class_name": "LSTM", "config": {"name": "lstm_35", "trainable": true, "dtype": "float32", "return_sequences": false, "return_state": false, "go_backwards": false, "stateful": false, "unroll": false, "time_major": false, "units": 128, "activation": "tanh", "recurrent_activation": "sigmoid", "use_bias": true, "kernel_initializer": {"class_name": "GlorotUniform", "config": {"seed": null}, "shared_object_id": 12}, "recurrent_initializer": {"class_name": "Orthogonal", "config": {"gain": 1.0, "seed": null}, "shared_object_id": 13}, "bias_initializer": {"class_name": "Zeros", "config": {}, "shared_object_id": 14}, "unit_forget_bias": true, "kernel_regularizer": null, "recurrent_regularizer": null, "bias_regularizer": null, "activity_regularizer": null, "kernel_constraint": null, "recurrent_constraint": null, "bias_constraint": null, "dropout": 0.0, "recurrent_dropout": 0.0, "implementation": 2}, "name": "lstm_35", "inbound_nodes": [[["max_pooling1d_17", 0, 0, {}]]]}, {"class_name": "GRU", "config": {"name": "gru_28", "trainable": true, "dtype": "float32", "return_sequences": false, "return_state": false, "go_backwards": false, "stateful": false, "unroll": false, "time_major": false, "units": 128, "activation": "tanh", "recurrent_activation": "sigmoid", "use_bias": true, "kernel_initializer": {"class_name": "GlorotUniform", "config": {"seed": null}, "shared_object_id": 17}, "recurrent_initializer": {"class_name": "Orthogonal", "config": {"gain": 1.0, "seed": null}, "shared_object_id": 18}, "bias_initializer": {"class_name": "Zeros", "config": {}, "shared_object_id": 19}, "kernel_regularizer": null, "recurrent_regularizer": null, "bias_regularizer": null, "activity_regularizer": null, "kernel_constraint": null, "recurrent_constraint": null, "bias_constraint": null, "dropout": 0.0, "recurrent_dropout": 0.0, "implementation": 2, "reset_after": true}, "name": "gru_28", "inbound_nodes": [[["max_pooling1d_18", 0, 0, {}]]]}, {"class_name": "Concatenate", "config": {"name": "concatenate_8", "trainable": true, "dtype": "float32", "axis": -1}, "name": "concatenate_8", "inbound_nodes": [[["lstm_35", 0, 0, {}], ["gru_28", 0, 0, {}]]]}, {"class_name": "Dense", "config": {"name": "dense_9", "trainable": true, "dtype": "float32", "units": 2, "activation": "softmax", "use_bias": true, "kernel_initializer": {"class_name": "GlorotUniform", "config": {"seed": null}}, "bias_initializer": {"class_name": "Zeros", "config": {}}, "kernel_regularizer": null, "bias_regularizer": null, "activity_regularizer": null, "kernel_constraint": null, "bias_constraint": null}, "name": "dense_9", "inbound_nodes": [[["concatenate_8", 0, 0, {}]]]}], "input_layers": [["input_36", 0, 0]], "output_layers": [["dense_9", 0, 0]]}}, "training_config": {"loss": "sparse_categorical_crossentropy", "metrics": ["accuracy"], "loss_weights": null, "sample_weight_mode": null, "weighted_metrics": null, "optimizer_config": {"class_name": "Adam", "config": {"name": "Adam", "learning_rate": 0.0010000000474974513, "decay": 0.0, "beta_1": 0.8999999761581421, "beta_2": 0.9990000128746033, "epsilon": 1e-07, "amsgrad": false}}}}, "weightsManifest": [{"paths": ["group1-shard1of5.bin", "group1-shard2of5.bin", "group1-shard3of5.bin", "group1-shard4of5.bin", "group1-shard5of5.bin"], "weights": [{"name": "conv1d_37_1/kernel", "shape": [5, 50, 64], "dtype": "float32"}, {"name": "conv1d_37_1/bias", "shape": [64], "dtype": "float32"}, {"name": "conv1d_38_1/kernel", "shape": [5, 50, 64], "dtype": "float32"}, {"name": "conv1d_38_1/bias", "shape": [64], "dtype": "float32"}, {"name": "dense_9_1/kernel", "shape": [256, 2], "dtype": "float32"}, {"name": "dense_9_1/bias", "shape": [2], "dtype": "float32"}, {"name": "embedding_35_1/embeddings", "shape": [98818, 50], "dtype": "float32"}, {"name": "gru_28_1/gru_cell_68/kernel", "shape": [64, 384], "dtype": "float32"}, {"name": "gru_28_1/gru_cell_68/recurrent_kernel", "shape": [128, 384], "dtype": "float32"}, {"name": "gru_28_1/gru_cell_68/bias", "shape": [2, 384], "dtype": "float32"}, {"name": "lstm_35_1/lstm_cell_76/kernel", "shape": [64, 512], "dtype": "float32"}, {"name": "lstm_35_1/lstm_cell_76/recurrent_kernel", "shape": [128, 512], "dtype": "float32"}, {"name": "lstm_35_1/lstm_cell_76/bias", "shape": [512], "dtype": "float32"}]}]}